model/backbone/backbone.pth (torch, 698669 bytes, 275 tensors)

first_conv.0.weight f4 [24, 3, 3, 3]
-0.1445121 -0.09929527 -0.12721184 -0.09364743 -0.054586846 -0.08030885 -0.14342014 -0.12837677
-0.10248799 -0.15127361 -0.104865335 -0.14912365 -0.20543852 -0.16033775 -0.15453923 -0.26413116
-0.19545068 -0.15252768 0.29558644 0.23056409 0.23977366 0.28279972 0.2262292 0.17537978
0.3380002 0.3044938 0.24810323 0.26061815 -0.14569113 -0.15451491 -0.18253739 -0.38010117
0.10193266 -0.010429787 0.08754209 0.34514052 0.5058344 -0.10629087 -0.21930543 -0.20666224
-0.65088534 -0.093155116 -0.181471 0.03213928 0.5891974 0.51520395 0.12516561 -0.04943797
-0.014157669 -0.48932046 -0.21823162 -0.17749459 -0.09468253 0.3115136 0.29225245 0.25127667
0.2721025 0.17465496 0.05449897 0.14485629 0.25056416 0.1767394 0.1980129 -0.39518327
-0.4361965 -0.29160744 -0.46884415 -0.5415681 -0.3258013 -0.34563988 -0.3760829 -0.19744512
0.09813329 0.23184888 0.02925567 0.3075293 0.45940003 0.1654768 0.057598587 0.14931804
-0.0059372773 -0.33028048 -0.44660327 -0.17812085 -0.4148596 -0.52316815 -0.27098858 -0.14837794
-0.24600145 -0.026897863 0.4908368 0.4638515 0.3292736 0.43699834 0.44258213 0.30260634
0.362875 0.3011643 0.23424953 -0.13383102 -0.061073363 -0.1408148 -0.074170485 0.06627554
-0.053040337 -0.2158001 -0.1206542 -0.18847968 0.35595694 -0.19438033 -0.22452794 0.2858775
-0.0010782825 -0.2267528 0.29866266 -0.030545767 -0.27008423 0.7046732 -0.33498237 -0.51682985
0.61758447 -0.06686771 -0.4927128 0.5679546 -0.04510083 -0.47500783 0.62121135 -0.32616436
-0.42378658 0.5059605 -0.10217153 -0.4065364 0.5967425 -0.02831846 -0.46479297 -0.00081663847
0.16584677 -0.021240246 0.12566297 0.18419999 0.08286537 0.080735594 0.20565964 0.089319944
0.06897933 0.19524679 0.055696424 0.1419315 0.14670844 0.070708916 0.022950742 0.11095164
0.016514853 0.08482333 0.23044476 0.15794812 0.10441517 0.14887878 0.1297744 -0.05535881
0.12903696 0.085383385 -0.31752604 0.025480093 0.4319042 -0.39013487 -0.013545976 0.43830895
-0.4456167 -0.23668143 0.5051112 -0.50561386 -0.029781565 0.6760463 -0.53723955 -0.114766486
0.66390854 -0.50607693 -0.38003725 0.66757196 -0.26105607 -0.056237176 0.459533 -0.21796653
-0.1509391 0.38599965 -0.25068158 -0.3633656 0.46300882 0.026109112 0.08297647 0.07863686
-0.08039157 0.025946934 0.06337555 -0.0696204 0.026388764 0.119298644 -0.005765378 -0.01348134
-0.05157122 0.033754315 -0.013368349 -0.011239516 0.092915446 -0.008846842 0.030538114 0.069019124
0.04841689 -0.08814441 0.043393154 0.009576603 -0.012720152 0.11357693 0.028246626 0.076934725
-0.071985796 -0.2307851 -0.10273177 0.09168636 -0.03335526 -0.25758764 0.08391744 0.32705864
0.17263243 -0.2086467 -0.54408205 -0.39845356 0.23815066 -0.040126935 -0.3607762 0.3381861
0.5895949 0.36772487 -0.3606342 -0.72481376 -0.6995935 0.29361394 -0.08371823 -0.49852294
0.6953627 0.8203666 0.5676098 -0.53182465 0.034727152 0.14673549 0.04985908 0.50101054
0.09541986 0.11608862 0.1431128 -0.3960357 -0.67560035 0.12989025 0.11138088 0.09253377
00000000: fbfa 13be 525b cbbd d243 02be 39ca bfbd
00000010: 7596 5fbd f778 a4bd bbdc 12be 3375 03be
00000020: 39e5 d1bd 78e7 1abe a3c3 d6bd dfb3 18be
00000030: 7a5e 52be 942f 24be 883f 1ebe 333c 87be
00000040: 3924 48be 3730 1cbe 1b57 973e fe18 6c3e
00000050: 3a87 753e 20cb 903e a1a8 673e c296 333e
00000060: 5d0e ad3e 9de6 9b3e c60e 7e3e be6f 853e
00000070: 0e30 15be 2839 1ebe 15eb 3abe 9f9c c2be
00000080: 12c2 d03d b3e1 2abc 4449 b33d 42b6 b03e
00000090: 5d7e 013f 07af d9bd 9a91 60be 449f 53be
000000a0: 6ca0 26bf 1cc8 bebd 89d3 39be 7aa4 033d
000000b0: a4d5 163f 68e4 033f 6a2b 003e 787f 4abd
000000c0: 91f5 67bc 3688 fabe 1c78 5fbe 24c1 35be
000000d0: eae8 c1bd b67e 9f3e 1da2 953e 56a7 803e
000000e0: 0551 8b3e c0d8 323e 503a 5f3d 3555 143e
000000f0: f249 803e 2cfb 343e e5c3 4a3e 7655 cabe
00000100: 2655 dfbe 924d 95be 570c f0be 35a4 0abf
00000110: 6ecf a6be b6f7 b0be f08d c0be 0e2f 4abe
00000120: 1bfa c83d cb69 6d3e 96a9 ef3c 7b74 9d3e
00000130: 7b36 eb3e c072 293e 7fec 6b3d d4e6 183e
00000140: 7e8d c2bb 861a a9be 2fa9 e4be 5065 36be
00000150: 7a68 d4be 59ee 05bf 04bf 8abe 63f0 17be
00000160: cee7 7bbe e858 dcbc f64e fb3e f27d ed3e
00000170: 8d96 a83e 3fbe df3e 209a e23e 38ef 9a3e
00000180: c1ca b93e 3532 9a3e 1cdf 6f3e 000b 09be
00000190: 1028 7abd c131 10be b2e6 97bd 78bb 873d
000001a0: d340 59bd b4fa 5cbe 8d19 f7bd d100 41be
000001b0: fd3f b63e a30b 47be a7ea 65be 895e 923e
000001c0: 2855 8dba e331 68be 50ea 983e 1e3b fabc
000001d0: 7b48 8abe 7665 343f cf82 abbe f64e 04bf
000001e0: 041a 1e3f f0f1 88bd da44 fcbe 7965 113f
000001f0: a6bb 38bd 3a34 f3be b507 1f3f 04ff a6be
00000200: 8efa d8be a186 013f 4f3f d1bd 8a25 d0be
00000210: 1ec4 183f 1dfc e7bc 58f9 edbe ae13 56ba
00000220: bcd3 293e 0600 aebc cbad 003e ec9e 3c3e
00000230: 52b5 a93d b458 a53d 7198 523e 60ed b63d
00000240: 0945 8d3d c6ee 473e ef21 643d 7e56 113e
00000250: bd3a 163e d6cf 903d 3203 bc3c 9d3a e33d
00000260: 284a 873c dbb7 ad3d b6f9 6b3e 27bd 213e
00000270: 9fd7 d53d ae73 183e 95e3 043e ebbf 62bd
00000280: 4422 043e 7cdd ae3d c692 a2be a1bb d03c
00000290: 8c22 dd3e c2bf c7be f1ef 5dbc 086a e03e
000002a0: df27 e4be 9e5c 72be f84e 013f e96f 01bf
000002b0: 78f8 f3bc 5f11 2d3f 8888 09bf b10a ebbd
000002c0: e9f5 293f 428e 01bf 3e94 c2be ffe5 2a3f
000002d0: 24a9 85be f458 66bd e947 eb3e 9e32 5fbe
000002e0: c88f 1abe bfa1 c53e 5659 80be 0e0b babe
000002f0: 7e0f ed3e c7e2 d53c 91ef a93d 5d0c a13d
00000300: 56a4 a4bd aa8e d43c 0acb 813d 2495 8ebd
00000310: 402d d83c d952 f43d 7feb bcbb d7e0 5cbc
00000320: 583c 53bd f741 0a3d eb06 5bbc f225 38bc
00000330: 744a be3d 58f2 10bc 112b fa3c e659 8d3d
00000340: ca50 463d 0e85 b4bd 05bd 313d 2fe7 1c3c
00000350: 2f68 50bc 059b e83d 7865 e73c f48f 9d3d
00000360: 4a6d 93bd ee52 6cbe 0965 d2bd 0fc6 bb3d
00000370: 869f 08bd 87e2 83be e8dc ab3d 3b74 a73e
00000380: 8ec6 303e 7ba7 55be f648 0bbf 1b02 ccbe
00000390: c4dd 733e 245c 24bd a8b7 b8be ba26 ad3e
000003a0: b1ef 163f 6f46 bc3e 0ca5 b8be 658d 39bf
000003b0: 8f18 33bf 9154 963e 7774 abbd 663e ffbe
000003c0: 4a03 323f 8c03 523f e04e 113f a925 08bf
000003d0: 0f3e 0e3d d441 163e 0939 4c3d 3a42 003f
000003e0: 7d6b c33d dfbf ed3d 298c 123e 31c5 cabe
000003f0: 25f4 2cbf f301 053e a91b e43d 5882 bd3d

first_conv.1.weight f4 [24]
0.18165965 0.31991437 0.17747785 0.18499611 0.4524612 0.46717727 0.4137218 0.55759007
0.40941522 0.30273664 0.1464351 0.00018882453 0.34791708 0.3177822 0.48153725 4.9588903e-06
0.22397919 0.66498196 0.23124924 0.3056736 0.41778773 0.4727668 0.3009183 0.39010268
00000000: fd04 3a3e d1cb a33e c1bc 353e 9f6f 3d3e
00000010: ffa8 e73e dc31 ef3e 58d3 d33e 39be 0e3f
00000020: df9e d13e 4c00 9b3e 15f3 153e 33ff 4539
00000030: 3022 b23e 59b4 a23e 0d8c f63e 8b64 a636
00000040: cd5a 653e 423c 2a3f 9acc 6c3e 4081 9c3e
00000050: 46e8 d53e 7d0e f23e f711 9a3e 8abb c73e

first_conv.1.bias f4 [24]
0.5928468 0.51708114 0.6117854 0.5030067 0.060605623 0.8314645 0.06108476 -0.8455073
0.16485983 0.36407745 0.13048236 -0.0011146484 -0.14650269 0.5317449 0.074170165 -0.0024109762
0.90649396 -0.81396633 0.08017792 0.3466034 0.08310349 1.0071805 0.2770848 0.15618862
00000000: cfc4 173f 6e5f 043f f89d 1c3f 0cc5 003f
00000010: 9a3d 783d dcda 543f 0334 7a3d 2b73 58bf
00000020: 04d1 283e 5c68 ba3e 2b9d 053e 6519 92ba
00000030: cd04 16be 6f20 083f 87e6 973d 7801 1ebb
00000040: fd0f 683f 1960 50bf 5234 a43d 0076 b13e
00000050: 2a32 aa3d 4aeb 803f 0fde 8d3e e9ef 1f3e

first_conv.1.running_mean f4 [24]
0.0042987154 -0.22885825 -0.08479919 0.03070741 -0.044948775 1.2271241 -0.01991254 0.2711873
-0.007134973 0.1595495 0.045954075 -1.2318509e-14 -0.3769301 -0.23229946 -0.03964205 2.2106904e-12
-0.04918786 -0.4126332 -0.019112183 0.1544177 -0.025617275 -1.3672045 0.1303059 -0.014121895
00000000: 3ddc 8c3b d159 6abe 33ab adbd 1b8e fb3c
00000010: 351c 38bd 6712 9d3f a01f a3bc 10d9 8a3e
00000020: 7ecc e9bb f260 233e 573a 3c3d 19e9 5da8
00000030: fbfc c0be e9df 6dbe b45f 22bd 4290 1b2c
00000040: 3679 49bd a944 d3be 2791 9cbc ac1f 1e3e
00000050: 52db d1bc 8f00 afbf e96e 053e 855f 67bc

first_conv.1.running_var f4 [24]
0.11475265 0.03046058 0.06493862 0.09104319 0.11119304 0.63037336 0.09887734 0.03098799
0.0919296 0.022885747 0.15677334 5.2760577e-26 0.060826145 0.030626822 0.12365947 2.0064018e-24
0.16073787 0.07101962 0.016118411 0.024158204 0.07397269 0.77920765 0.02391501 0.078971736
00000000: 7003 eb3d 7788 f93c 8afe 843d da74 ba3d
00000010: 2db9 e33d 2660 213f 3480 ca3d 86da fd3c
00000020: 9645 bc3d e47a bb3c 3189 203e fda0 8215
00000030: d624 793d 1ae5 fa3c 2d41 fd3d e23c 1b18
00000040: 7898 243e bc72 913d c20a 843c 6de7 c53c
00000050: fe7e 973d 277a 473f 69e9 c33c efbb a13d

stage2.0.branch_main.0.weight f4 [24, 24, 1, 1]
0.31592962 0.015915893 0.36999503 0.35233957 0.026704965 0.1899002 0.014666872 0.2038638
0.014801135 0.004683572 0.06720164 1.1963326e-12 0.18722294 0.03308111 0.019457102 -1.4295345e-13
0.49487463 0.27679297 0.010914913 0.0009882896 0.0033823957 0.116624 0.010256746 0.007912945
0.11810171 -0.009064443 0.032305446 0.04237007 0.2723383 0.54570687 0.21045475 0.009430193
-0.3365588 -0.10482958 0.08320686 -1.3271755e-12 0.009932454 0.09394305 -0.34742644 5.806165e-14
0.13610135 0.061953004 -0.0027294946 -0.4379006 -0.19523849 0.20481813 0.16973096 -0.2600959
0.057870176 -0.002329892 0.017364377 0.0044121956 0.15604791 -0.2312333 -0.7094445 -0.10411092
0.042712465 -0.09473502 0.02327674 1.2427573e-12 -0.030153794 0.028516833 0.041898232 2.2669356e-13
0.05333725 -0.14965107 0.025539994 0.032173708 0.06706931 -0.30170375 -0.121311195 -0.0017414979
0.15217668 -0.3668426 0.06388002 0.06573381 0.054698158 0.08518157 0.081728205 -0.14452426
0.005363034 -0.37561056 -0.12564588 5.029006e-13 0.06651118 0.17076047 -0.071064524 -6.1267284e-13
0.08404378 0.048067153 -0.13093089 -0.022349918 -0.319244 0.15420929 0.13794371 -0.36979204
-0.2614786 0.007898004 -0.16119516 -0.19122416 -0.26538152 0.016556581 -0.24234392 -0.09491094
0.07666164 -0.058127403 -0.1712936 8.922671e-13 -0.08789875 -0.031905863 0.086951375 1.3566943e-12
-0.41527212 -0.112098776 -0.093685 0.07447487 -0.021759994 0.050724 -0.13221943 -3.478079e-05
-0.3066554 -0.0040338486 -0.47791296 -0.38850743 -0.026640005 -0.13468552 -0.025509086 -0.27522162
-0.023386538 -0.005166972 -0.111427784 2.8228957e-13 -0.22645935 -0.028961617 -0.0050794883 2.1701002e-13
-0.5200095 -0.3545529 -0.012899301 -0.01740568 -0.0015120319 -0.10375029 0.0005297961 -0.007235618
0.061254717 0.20867525 0.096973754 0.08523584 -0.31335315 0.29683763 -0.28594247 0.054178357
-0.2633775 0.16710915 0.06636555 5.7961833e-13 -0.010470758 -0.49330664 -0.22000991 1.3841295e-12
0.13865906 0.1150729 0.1581118 -0.0982773 0.3632759 0.19955823 -0.4568633 0.2805312
0.050779823 0.26899767 0.14709929 0.113717854 -0.04116346 0.030947149 -0.07044877 0.14232802
-0.41938895 0.23918724 -0.06647716 -1.114471e-12 0.15389548 -0.35976988 -0.32561582 9.712523e-13
0.049542718 0.08131474 0.12566549 -0.34635165 0.25285757 0.16812459 -0.114104874 0.19014797
-0.049440812 -0.057325315 -0.005608377 -0.057786386 -0.681143 -0.19697206 0.24676496 -0.094521455
-0.02204391 -0.09079173 0.0021497495 -9.446443e-13 -0.120159976 -0.13241707 0.06899494 -7.0780013e-15
-0.062068008 0.19174024 0.15619454 0.05162642 -0.075368464 -0.13368742 -0.10240715 0.045117114
0.03670859 0.17240852 0.07001096 0.10224588 -0.4627815 0.23229659 -0.44838345 0.17933524
0.1284231 -0.035308916 0.009455571 -1.0831547e-12 0.06467775 0.08228431 0.14654759 -5.047539e-13
0.036701374 0.06470473 -0.055703405 0.1931598 -0.04529573 0.21321148 -0.36310148 -0.026283553
0.13584003 0.05849135 -0.009607335 0.07079598 0.114011176 0.06860247 -0.09002261 0.054002646
0.18864177 0.08330897 0.01617039 2.6615892e-13 0.11231897 0.02165238 -0.20073327 -1.3597403e-12
00000000: 87c1 a13e 0c62 823c fd6f bd3e da65 b43e
00000010: 5fc4 da3c 3375 423e 524d 703c acc1 503e
00000020: 7680 723c a678 993b 03a1 893d 6d5e a82b
00000030: 5fb7 3f3e 0f80 073d 8064 9f3c 87f3 20aa
00000040: 3560 fd3e cfb7 8d3e 77d4 323c 7f89 813a
00000050: 2fab 5d3b 90d8 ee3d e90b 283c 4ca5 013c
00000060: 4fdf f13d 0883 14bc b752 043d 3d8c 2d3d
00000070: ed6f 8b3e 72b3 0b3f 7381 573e 1981 1a3c
00000080: 6f51 acbe e4b0 d6bd 5c68 aa3d 89c8 baab
00000090: bbbb 223c 3765 c03d e1e1 b1be 43be 8229
000000a0: 275e 0b3e 6fc2 7d3d 52e1 32bb 8234 e0be
000000b0: 99ec 47be d8bb 513e f4cd 2d3e 4a2b 85be
000000c0: 4709 6d3d 1ab1 18bb bd3f 8e3c 2e94 903b
000000d0: 06cb 1f3e 6cc8 6cbe 289e 35bf 1b38 d5bd
000000e0: 44f3 2e3d 6f04 c2bd ddae be3c 0de7 ae2b
000000f0: 1705 f7bc 229c e93c 7b9d 2b3d f83b 7f2a
00000100: 2978 5a3d 213e 19be 4039 d13c 94c8 033d
00000110: a25b 893d ea78 9abe 0172 f8bd f942 e4ba
00000120: 34d4 1b3e cbd2 bbbe 87d3 823d 739f 863d
00000130: 2d0b 603d ad73 ae3d 1e61 a73d 2bfe 13be
00000140: 64bc af3b 0750 c0be 50a9 00be cf8d 0d2b
00000150: 0337 883d d5db 2e3e 478a 91bd bb73 2cab
00000160: 251f ac3d 10e2 443d bf12 06be 2d17 b7bc
00000170: f373 a3be 0ae9 1d3e 1e41 0d3e 6255 bdbe
00000180: 86e0 85be a166 013c 5810 25be 44d0 43be
00000190: 16e0 87be aba1 873c 0129 78be ab60 c2bd
000001a0: c700 9d3d 0017 6ebd 9767 2fbe 9f26 7b2b
000001b0: 4304 b4bd b9af 02bd 9013 b23d 10f0 be2b
000001c0: 8c9e d4be 0b94 e5bd ecdd bfbd 4886 983d
000001d0: 0442 b2bc f8c3 4f3d 8864 07be 97e1 11b8
000001e0: f001 9dbe 602e 84bb 02b1 f4be 72ea c6be
000001f0: 243c dabc 00eb 09be 6ef8 d0bc d9e9 8cbe
00000200: 2095 bfbc b44f a9bb 4034 e4bd 37ea 9e2a
00000210: f6e4 67be ea40 edbc d671 a6bb e154 742a
00000220: 581f 05bf f587 b5be 9757 53bc 5b96 8ebc
00000230: 5f2f c6ba 087b d4bd 04e2 0a3a c318 edbb
00000240: 3ae6 7a3d f7ae 553e 2d9a c63d 2190 ae3d
00000250: d36f a0be 1afb 973e 0d67 92be 20ea 5d3d
00000260: 6ad9 86be a91e 2b3e a9ea 873d e725 232b
00000270: 8b8d 2bbc b092 fcbe 474a 61be 85cc c22b
00000280: a4fc 0d3e 57ab eb3d 0fe8 213e 9c45 c9bd
00000290: 4cff b93e fe58 4c3e fde9 e9be c9a1 8f3e
000002a0: 81fe 4f3d 10ba 893e 32a1 163e e8e4 e83d
000002b0: 049b 28bd e084 fd3c 7247 90bd 70be 113e
000002c0: 26ba d6be 80ed 743e 2d25 88bd 0dd9 9cab
000002d0: c796 1d3e c233 b8be 1eb7 a6be 0db1 882b
000002e0: 4eed 4a3d 5888 a63d 74ae 003e 0155 b1be
000002f0: 8c76 813e da28 2c3e d1af e9bd 26b6 423e
00000300: 7382 4abd f3cd 6abd 7ac6 b7bb 6bb1 6cbd
00000310: 635f 2ebf 0bb3 49be f4af 7c3e 7794 c1bd
00000320: 6e95 b4bc 04f1 b9bd d0e2 0c3b 66f2 84ab
00000330: 6f16 f6bd 5798 07be 384d 8d3d 0a03 ffa7
00000340: 063b 7ebd 8e57 443e 76f1 1f3e 3a76 533d
00000350: c85a 9abd 5be5 08be d7ba d1bd b9cc 383d
00000360: bf5b 163d dc8b 303e e861 8f3d 4a66 d13d
00000370: b2f1 ecbe 28df 6d3e 8492 e5be a8a3 373e
00000380: 5881 033e 15a0 10bd 8aeb 1a3c c370 98ab
00000390: c575 843d ad84 a83d 9210 163e 5a13 0eab
000003a0: 2e54 163d ea83 843d 4129 64bd afcb 453e
000003b0: 0488 39bd 1c54 5a3e 70e8 b9be 9b50 d7bc
000003c0: a619 0b3e a094 6f3d 1568 1dbc 7cfd 903d
000003d0: b17e e93d 747f 8c3d c65d b8bd e131 5d3d
000003e0: 4f2b 413e e59d aa3d c477 843c 8bd5 952a
000003f0: 7d07 e63d 5560 b13c 068d 4dbe cf5d bfab

stage2.0.branch_main.1.weight f4 [24]
0.0943355 0.3782897 0.3220089 0.4745141 0.32358742 0.14778937 0.35629764 0.27602896
0.31838515 0.33675504 0.24604015 0.43835282 0.10046289 0.580615 0.28533304 0.3080274
0.27958238 0.4936203 0.068437174 0.35114843 0.3702359 0.21474396 0.14676073 0.46199965
00000000: f832 c13d 30af c13e 5ade a43e 83f3 f23e
00000010: 40ad a53e 1956 173e a56c b63e ab53 8d3e
00000020: 6103 a33e 286b ac3e f3f1 7b3e c86f e03e
00000030: 7dbf cd3d 2fa3 143f 2c17 923e c4b5 9d3e
00000040: 6c25 8f3e cdbb fc3e ca28 8c3d bac9 b33e
00000050: 8f8f bd3e d7e5 5b3e 7248 163e 388b ec3e

stage2.0.branch_main.1.bias f4 [24]
0.11091308 0.033742115 -0.06553759 -0.21688883 -0.028412607 0.39959946 0.0015999023 0.19004461
-0.057758193 0.11143958 -0.023205964 -0.18457668 0.28961292 -0.27360523 -0.05565181 -0.07356024
0.19362879 -0.2267776 0.09795125 -0.09943331 0.019030094 0.12627096 0.31832945 -0.20904845
00000000: 6626 e33d 2c35 0a3d 9238 86bd 1b18 5ebe
00000010: 8ec1 e8bc 4d98 cc3e d0b3 d13a 0e9b 423e
00000020: db93 6cbd 6f3a e43d 6f1a bebc ab01 3dbe
00000030: 2548 943e fc15 8cbe 27f3 63bd c0a6 96bd
00000040: a046 463e 6338 68be aa9a c83d b1a3 cbbd
00000050: 00e5 9b3c 2d4d 013e 14fc a23e cc10 56be

stage2.0.branch_main.1.running_mean f4 [24]
1.5083988 0.5311043 -0.6414424 -0.09493311 -0.9416765 -1.5596011 0.30335912 0.14644201
-0.76617473 0.45676258 0.36273682 -0.618042 -0.1221783 0.15638335 0.86352396 -1.2238696
0.014575134 -0.09231541 2.1115983 -0.36154386 0.23692267 -1.478316 -0.44684622 -0.12441087
00000000: 3613 c13f 74f6 073f 9235 24bf 4a6c c2bd
00000010: b611 71bf 02a1 c7bf e351 9b3e e5f4 153e
00000020: 0724 44bf c9dc e93e a4b8 b93e 0038 1ebf
00000030: 9e38 fabd f522 203e e80f 5d3f c2a7 9cbf
00000040: 8bcc 6e3c dd0f bdbd 6d24 0740 471c b9be
00000050: db9b 723e 7539 bdbf 07c9 e4be 20cb febd

stage2.0.branch_main.1.running_var f4 [24]
0.015564197 0.15316302 0.15030609 0.119385846 0.059081055 0.017242992 0.092258155 0.07151996
0.12822473 0.1358331 0.055791147 0.2754514 0.015108854 0.24374703 0.0328686 0.032801718
0.06814154 0.12328626 0.03329023 0.17439891 0.115321696 0.015726259 0.1677932 0.28468803
00000000: f900 7f3c c4d6 1c3e d7e9 193e 9180 f43d
00000010: fafe 713d 2d41 8d3c d8f1 bc3d 0f79 923d
00000020: 584d 033e d517 0b3e 4285 643d f707 8d3e
00000030: 208b 773c d298 793e 3aa1 063d 185b 063d
00000040: cb8d 8b3d 827d fc3d 565b 083d a195 323e
00000050: c82d ec3d 5bd4 803c fbd1 2b3e a1c2 913e

stage2.0.branch_main.3.weight f4 [24, 1, 3, 3]
-0.02240777 0.17665331 0.018977657 -0.09281927 -0.00067477475 -0.5102262 -0.039973103 0.24754797
0.20094086 -0.039615296 -0.10038294 -0.052195642 -0.08208671 -0.23068906 -0.17880194 -0.012829644
-0.092303514 -0.06994026 -0.0040042456 0.015204331 0.03973762 0.07860171 0.11357273 0.08831502
0.03117877 0.14596957 0.11339974 0.02121873 0.0746394 0.087579414 0.07746 0.14246689
0.14077824 0.055556383 0.1489356 0.13012166 -0.03688017 0.2132122 -0.11365485 -0.07926322
0.20742828 -0.23010097 -0.051374815 0.19480884 -0.11510172 0.07634573 -0.14508884 0.18493024
0.112407975 -0.5159608 -0.01341153 0.11006415 -0.092089206 0.22140978 -0.015738834 -0.084481254
-0.08508443 -0.05616429 -0.16297188 -0.17549914 -0.044642456 -0.11265751 -0.19306307 -0.049182303
-0.120604664 -0.040090054 -0.10311062 -0.21627498 -0.14232805 -0.032943204 -0.14430472 -0.16318607
-0.0028964547 -0.02333962 -0.02404705 -0.0542467 -0.13790248 -0.08516414 -0.07028933 -0.16511118
-0.10811071 0.015239268 0.11092425 0.058319792 0.084580444 0.224691 0.177039 0.00018356569
0.12550664 0.098466344 -0.026625425 -0.06878326 -0.08973893 -0.051922318 -0.16568251 -0.16168962
-0.056630593 -0.10939757 -0.06100789 0.0139548695 0.069731005 0.08362186 0.014468144 0.15253127
0.15355761 0.028523952 0.088227674 0.028099373 0.03795023 0.21435812 -0.054965224 0.10048018
0.19177073 -0.11409639 -0.041746203 0.014442492 -0.29189453 0.0033384566 -0.027053507 -0.05007815
-0.039140422 -0.12608574 -0.18391961 -0.019087167 -0.14305952 -0.19365543 0.002570199 -0.03679166
-0.02910305 -0.020243255 -0.11836148 -0.14251783 -0.008240503 -0.13937874 -0.15654097 0.044246834
0.072858594 0.113848686 -0.015236882 -0.3085506 -0.2651184 0.055312816 0.11330821 0.2136168
0.047600385 0.10399164 0.057615306 0.07899432 0.20154937 0.17024143 0.04848038 0.14572032
0.17836043 -0.026922125 -0.05906832 -0.07176396 -0.073697105 -0.15663438 -0.13924971 -0.06101489
-0.1406247 -0.16524461 0.010538336 0.01060972 -0.030365065 -0.008701775 -0.06488323 -0.19707629
0.03543835 -0.24966277 -0.4328766 -0.012333593 -0.047673404 -0.089838386 -0.027638372 -0.121193565
-0.15110378 -0.028632404 -0.1286476 -0.11345606 -0.019808441 -0.08999962 -0.07646486 -0.061599117
-0.19194803 -0.1833921 -0.03595993 -0.14364403 -0.14041139 -0.022036873 -0.027308198 -0.029980427
-0.033159822 -0.11566125 -0.14353931 -0.023337537 -0.11670679 -0.19414675 -0.13398044 -0.5464319
-0.43813518 -0.020753697 -0.12623872 -0.0766694 0.19509767 0.65365106 0.55881804 -0.026039077
-0.033654865 -0.020719707 -0.016454827 0.0932773 0.11709645 -0.009257353 0.1692046 0.2449164
00000000: 8090 b7bc 9be4 343e 0877 9b3c 0818 bebd
00000010: 5ee3 30ba 2f9e 02bf d6ba 23bd 377d 7d3e
00000020: 71c3 4d3e a643 22bd 9295 cdbd 19cb 55bd
00000030: 141d a8bd c139 6cbe db17 37be 6d33 52bc
00000040: a009 bdbd d73c 8fbd 0c36 83bb 961b 793c
00000050: eac3 223d eff9 a03d d298 e83d 81de b43d
00000060: 9f6a ff3c 0c79 153e 1f3e e83d e7d2 ad3c
00000070: 8bdc 983d d65c b33d 59a3 9e3d d7e2 113e
00000080: 2c28 103e 178f 633d 9382 183e 9d3e 053e
00000090: a90f 17bd 4d54 5a3e e0c3 e8bd c154 a2bd
000000a0: 1468 543e 979f 6bbe 666e 52bd f87b 473e
000000b0: 73ba ebbd 265b 9c3d 2b92 14be 5a5e 3d3e
000000c0: 2736 e63d 0216 04bf 09bc 5bbc 5069 e13d
000000d0: 4499 bcbd 3fb9 623e baee 80bc 8204 adbd
000000e0: bf40 aebd 870c 66bd 1ae2 26be 0cb6 33be
000000f0: 02db 36bd fbb8 e6bd 53b2 45be 6273 49bd
00000100: 94ff f6bd 7835 24bd a92b d3bd 3077 5dbe
00000110: 72be 11be 74ef 06bd 9ec4 13be 401a 27be
00000120: 72d2 3dbb bb32 bfbc 52fe c4bc ca31 5ebd
00000130: 4f36 0dbe 896a aebd daf3 8fbd e812 29be
00000140: 2669 ddbd 1fae 793c 412c e33d bce0 6e3d
00000150: 8338 ad3d 6615 663e b649 353e 8a7b 4039
00000160: d084 003e b9a8 c93d 901d dabc 3dde 8cbd
00000170: 0bc9 b7bd 7fac 54bd ada8 29be f791 25be
00000180: 7bf5 67bd d50b e0bd 69e3 79bd f7a2 643c
00000190: 21cf 8e3d f041 ab3d cb0b 6d3c 2831 1c3e
000001a0: 353e 1d3e 10ab e93c b6b0 b43d a830 e63c
000001b0: b371 1b3d b280 5b3e 3723 61bd 8dc8 cd3d
000001c0: 8c5f 443e 5eab e9bd 11fe 2abd 34a0 6c3c
000001d0: 3373 95be 02ca 5a3b 519f ddbc bf1e 4dbd
000001e0: b551 20bd 9f1c 01be 6c55 3cbe b15c 9cbc
000001f0: 327e 12be 9c4d 46be c970 283b dab2 16bd
00000200: 8569 eebc 2fd5 a5bc 8167 f2bd 32f0 11be
00000210: 2d03 07bc 4db9 0ebe 474c 20be 2b3c 353d
00000220: e336 953d 8029 e93d 1da4 79bc 58fa 9dbe
00000230: 99bd 87be b18f 623d 230e e83d 5dbe 5a3e
00000240: 9ff8 423d 92f9 d43d 07fe 6b3d c6c7 a13d
00000250: f562 4e3e c553 2e3e 5d93 463d b537 153e
00000260: 1ea4 363e ca8b dcbc 9ff1 71bd fcf8 92bd
00000270: 82ee 96bd c364 20be 7a97 0ebe c0ea 79bd
00000280: ecff 0fbe e235 29be fca8 2c3c 64d4 2d3c
00000290: 28c0 f8bc e491 0ebc 80e1 84bd 5ece 49be
000002a0: ce27 113d 99a7 7fbe 00a2 ddbe d712 4abc
000002b0: 3045 43bd 30fd b7bd de69 e2bc 5534 f8bd
000002c0: f3ba 1abe 818e eabc 32bc 03be a75b e8bd
000002d0: 5045 a2bc b951 b8bd 9c99 9cbd 5b4f 7cbd
000002e0: 068e 44be 23cb 3bbe b84a 13bd 6c17 13be
000002f0: 01c8 0fbe ac86 b4bc 71b5 dfbc 8399 f5bc
00000300: 98d2 07bd cedf ecbd f8fb 12be 5d2e bfbc
00000310: f803 efbd 68ce 46be 2b32 09be f6e2 0bbf
00000320: 4153 e0be a803 aabc b944 01be d904 9dbd
00000330: afc7 473e ad55 273f b30e 0f3f e74f d5bc
00000340: afd9 09bd 60bc a9bc 46cc 86bc 2b08 bf3d
00000350: 43d0 ef3d 27ac 17bc f843 2d3e 5dcb 7a3e

stage2.0.branch_main.4.weight f4 [24]
0.3186357 0.36357117 0.24800394 0.29762253 0.22968909 0.31709483 0.34404257 0.3487343
0.28789008 0.33587995 0.35710025 0.21222161 0.30737817 0.30487537 0.2467147 0.24317545
0.347894 0.305095 0.454836 0.2530801 0.3588257 0.31050476 0.44814086 0.27147704
00000000: 3824 a33e 0026 ba3e bff4 7d3e fb61 983e
00000010: 9e33 6b3e 415a a23e 5926 b03e 4d8d b23e
00000020: 5466 933e 75f8 ab3e d8d5 b63e 9f50 593e
00000030: ac60 9d3e a018 9c3e c7a2 7c3e fc02 793e
00000040: 2a1f b23e 6935 9c3e 44e0 e83e b793 813e
00000050: 01b8 b73e 7bfa 9e3e b872 e53e 0aff 8a3e

stage2.0.branch_main.4.bias f4 [24]
7.3005455e-09 -4.8145574e-07 4.4426923e-08 3.0695256e-07 1.4781287e-07 1.1362537e-08 -4.2212883e-07 3.089456e-07
-1.736563e-07 -2.2344496e-07 -1.3378465e-07 2.9757592e-07 5.3203297e-07 2.6304915e-07 -2.843443e-07 -8.8673335e-09
1.2823747e-07 4.845808e-07 2.9974538e-09 -1.2070278e-07 -3.9258163e-07 2.6049958e-07 1.3314853e-07 4.3500336e-07
00000000: 47d8 fa31 633d 01b5 ebcf 3e33 3dcb a434
00000010: 7eb6 1e34 f734 4332 f2a0 e2b4 29dd a534
00000020: 4876 3ab4 15ec 6fb4 72a6 0fb4 86c2 9f34
00000030: 07d1 0e35 3339 8d34 fca7 98b4 f256 18b2
00000040: a6b1 0934 2414 0235 c4fb 4d31 879a 01b4
00000050: 02c4 d2b4 cada 8b34 97f7 0e34 688a e934

stage2.0.branch_main.4.running_mean f4 [24]
-0.002634962 -0.1146209 0.03101141 0.032245513 -0.0022867431 -0.025799198 -0.10594853 -0.23651156
-0.040170517 0.16584866 -0.044877097 0.012791233 0.013618458 -0.022463242 -0.038452692 0.0024483432
0.24470918 -0.03257378 -0.090412885 -0.03390023 -0.1221839 -0.11740426 0.028399728 0.013103505
00000000: 54af 2cbb 5dbe eabd a40b fe3c df13 043d
00000010: 2fdd 15bb d758 d3bc 8bfb d8bd 1630 72be
00000020: d789 24bd 3bd4 293e 0cd1 37bd 5292 513c
00000030: f41f 5f3c d504 b8bc 9280 1dbd 6274 203b
00000040: 0b95 7a3e 156c 05bd 642a b9bd f8da 0abd
00000050: 8d3b fabd a571 f0bd 8ca6 e83c 15b0 563c

stage2.0.branch_main.4.running_var f4 [24]
0.0010201368 0.008562702 0.00057594693 0.0021005434 0.00045481563 0.002165083 0.010062833 0.018109212
0.0016580656 0.010598108 0.008603651 0.00029450888 0.0014804864 0.0010824027 0.0011609351 0.00027468018
0.020429267 0.0020852757 0.0034065084 0.0009981347 0.01164498 0.0041199233 0.009161452 0.0002857596
00000000: 1cb6 853a 934a 0c3c 25fb 163a 45a9 093b
00000010: 5274 ee39 11e4 0d3b 95de 243c c559 943c
00000020: 7353 d93a b0a3 2d3c 54f6 0c3c 5068 9a39
00000030: e10c c23a 68df 8d3a 852a 983a f302 9039
00000040: 475b a73c 1fa9 083b ba3f 5f3b d8d3 823a
00000050: 96ca 3e3c 6c00 873b ea19 163c 01d2 9539

stage2.0.branch_main.5.weight f4 [24, 24, 1, 1]
0.037484497 -0.04527845 0.07237974 0.0826225 -0.009343196 -0.046639424 -0.055043392 -0.09248416
-0.0008900425 0.20602988 0.28968522 -0.04946555 0.0023337258 -0.16712365 -0.0041566645 -0.02901904
0.06530727 -0.123193234 0.42972255 -0.18284175 -0.05074644 -0.12006221 0.083579265 0.07592255
-0.017464863 -0.020348683 -0.018623343 -0.015799308 -0.0033642622 -0.005645675 0.017387612 -0.017237136
0.07738115 -0.025147494 0.14505483 0.1389882 0.0061294246 0.08532783 -0.03621526 -0.033542305
-0.018501295 -0.03975558 -0.103993244 0.1072232 0.08815647 0.029302543 -0.5806211 0.0072099445
-0.23998989 0.046194114 0.28164274 0.03480965 0.2456372 -0.35869086 0.16262913 0.0042966576
-0.26705462 -0.13294366 0.103174485 -0.13172747 0.030759793 0.08997363 0.008276389 -0.059944227
0.024465462 0.0049291165 -0.07431888 -0.025753062 0.14708506 0.10874811 0.07236173 0.054012932
0.05995186 0.040372692 0.09162696 -0.03390055 -0.0011572954 -0.030919613 -0.061516453 0.061604645
-0.19183032 0.20266445 0.16075337 0.017940309 -0.016822493 -0.13480487 -0.07315072 0.02567848
-0.09383647 -0.033505697 0.08840413 -0.09932073 -0.28590724 0.085337594 0.103176855 0.053985562
-0.0014453931 0.20105271 0.044492085 0.29879168 -0.006973079 0.001415615 0.36307195 0.33891302
-0.032862414 0.19461814 -0.012484076 -0.008938689 -0.34780797 -0.16179483 -0.07660293 0.0020681338
0.3545139 0.44064298 -0.026308492 0.068778865 -0.33245033 0.034875143 -0.02660449 -0.05701314
0.034914836 0.27345163 -0.07005998 -0.0364233 0.042508055 0.0765098 -0.07472599 0.2625319
0.055467054 0.10016429 0.35357583 -0.17708299 0.012421117 0.01713499 -0.018069368 0.033951182
-0.15065967 0.09784493 -0.01716557 -0.050044633 -0.14118502 -0.09399994 0.13704397 -0.07109864
0.4206297 0.12364081 0.15612485 -0.027667826 -0.18620165 -6.0287246e-05 0.011132489 0.12200191
-0.15779406 0.079540245 0.048760362 0.040085685 0.00039435836 -0.081045106 0.026129887 -0.1723541
-0.03509738 0.031238724 0.16212018 -0.124708585 0.015030743 0.06982933 0.014622381 -0.0036689918
-0.2359803 0.059093125 0.018164476 -0.013159968 0.11310147 0.18162414 0.029118879 0.053244084
-0.06699409 0.015512296 -0.18329978 0.1869348 0.032851275 0.06521025 -0.048271004 0.38063863
-0.03931781 0.023954693 0.017091168 -0.11225023 -0.0642619 0.060033087 -0.046445835 -0.06214407
-0.0027758651 -0.025455924 -0.018126206 0.308665 -0.020446727 -0.003430036 0.22993338 0.35224053
0.011830171 0.0047351248 0.011292041 -0.055421785 0.042941175 -0.060463674 -0.016242748 -0.0028123732
0.36248246 0.32553393 0.011620879 -0.0012334564 -0.20267037 -0.039663654 0.009289869 -0.012132514
0.096068226 0.17630473 -0.06841612 0.11360953 -0.045076944 0.021217084 0.044866152 -0.08940444
-0.044192623 0.23327288 -0.10979347 -0.091485925 0.043762606 -0.035457596 -0.27963382 -0.034836963
0.10485724 -0.08742419 0.0004477909 0.0020802836 0.08478659 0.1381046 -0.0627259 -0.13028322
-0.1215166 -0.19035976 0.014505015 0.010298418 0.02773982 -0.0153037505 -0.09912032 0.0043847077
-0.032812152 0.07031552 -0.01004879 0.040521964 0.013154507 -0.11672361 -0.18207227 0.09716544
00000000: 5889 193d e575 39bd d43b 943d fc35 a93d
00000010: 3414 19bc fb08 3fbd 2e75 61bd 5668 bdbd
00000020: be51 69ba 7ff9 523e 9f51 943e 639c 4abd
00000030: 6cf1 183b 7622 2bbe a134 88bb 56b9 edbc
00000040: d1bf 853d bc4c fcbd 9804 dc3e de3a 3bbe
00000050: 80db 4fbd 2de3 f5bd 9b2b ab3d 487d 9b3d
00000060: 7912 8fbc 48b2 a6bc fb8f 98bc 8d6d 81bc
00000070: f47a 5cbb 5bff b8bb 7770 8e3c e534 8dbc
00000080: 027a 9e3d 1e02 cebc 4189 143e ec52 0e3e
00000090: 57d9 c83b 5bc0 ae3d 7456 14bd a863 09bd
000000a0: 0790 97bc bfd6 22bd 69fa d4bd d697 db3d
000000b0: 618b b43d e30b f03c 96a3 14bf 6641 ec3b
000000c0: e9bf 75be 0a36 3d3d 7a33 903e 9094 0e3d
000000d0: 5188 7b3e 54a6 b7be 4088 263e faca 8c3b
000000e0: 62bb 88be 6222 08be 254d d33d 91e3 06be
000000f0: f6fb fb3c 1844 b83d b199 073c 1488 75bd
00000100: cb6b c83c 6d84 a13b 7f34 98bd 16f8 d2bc
00000110: 779d 163e 54b7 de3d 6332 943d aa3c 5d3d
00000120: 1590 753d d65d 253d eaa6 bb3d 4edb 0abd
00000130: 64b0 97ba 214b fdbc adf8 7bbd 2755 7c3d
00000140: 2b6f 44be 4587 4f3e 889c 243e 8ef7 923c
00000150: 53cf 89bc 4a0a 0abe 0bd0 95bd ad5b d23c
00000160: 562d c0bd 453d 09bd 390d b53d ab68 cbbd
00000170: 6f62 92be 7ac5 ae3d 634e d33d f71f 5d3d
00000180: 5873 bdba c3e0 4d3e 553d 363d 39fb 983e
00000190: 6d7e e4bb 288c b93a 91e4 b93e 0286 ad3e
000001a0: bd9a 06bd fa49 473e 038a 4cbc 9473 12bc
000001b0: e313 b2be 8bad 25be ffe1 9cbd 8789 073b
000001c0: d982 b53e f59b e13e e884 d7bc efdb 8c3d
000001d0: ee36 aabe 3dd9 0e3d a9f1 d9bc 9c86 69bd
000001e0: dc02 0f3d da01 8c3e 9b7b 8fbd 9930 15bd
000001f0: ed1c 2e3d 2cb1 9c3d f109 99bd 956a 863e
00000200: 6c31 633d ef22 cd3d e407 b53e 3e55 35be
00000210: f181 4b3c ae5e 8c3c 3606 94bc 6510 0b3d
00000220: 8746 1abe ec62 c83d cf9e 8cbc 9afb 4cbd
00000230: ce92 10be 0a83 c0bd 4155 0c3e 2a9c 91bd
00000240: c75c d73e 6537 fd3d 31df 1f3e a3a7 e2bc
00000250: a5ab 3ebe f0dc 7cb8 0b65 363c 23dc f93d
00000260: c494 21be ffe5 a23d f2b8 473d e330 243d
00000270: e2c1 ce39 fafa a5bd 580e d63c 987d 30be
00000280: 45c2 0fbd 5ae8 ff3c d502 263e 3767 ffbd
00000290: 8143 763c ae02 8f3d b692 6f3c 7873 70bb
000002a0: d2a4 71be a20b 723d abcd 943c e89c 57bc
000002b0: bea1 e73d aefb 393e b78a ee3c 7816 5a3d
000002c0: 3334 89bd 4927 7e3c f0b2 3bbe d66b 3f3e
000002d0: 0f8f 063d f48c 853d d1b7 45bd 11e3 c23e
000002e0: b60b 21bd a23c c43c c702 8c3c 73e3 e5bd
000002f0: be9b 83bd 41e5 753d fd3d 3ebd c88a 7ebd
00000300: 4aeb 35bb f188 d0bc 697d 94bc 5709 9e3e
00000310: e57f a7bc 74ca 60bb a873 6b3e df58 b43e
00000320: 55d3 413c 1b29 9b3b 4102 393c f401 63bd
00000330: 16e3 2f3d c2a8 77bd 830f 85bc cb4f 38bb
00000340: 4d97 b93e 62ac a63e 8065 3e3c eeab a1ba
00000350: d288 4fbe 5b76 22bd 8934 183c 74c7 46bc
00000360: 6bbf c43d 3a89 343e c01d 8cbd 1dac e83d
00000370: 9aa2 38bd 73cf ad3c 92c5 373d ad19 b7bd
00000380: 5303 35bd 16df 6e3e 66db e0bd f95c bbbd
00000390: 6b40 333d fc3b 11bd 2a2c 8fbe 34b1 0ebd
000003a0: 65bf d63d 740b b3bd 7ac5 ea39 5e55 083b
000003b0: 97a4 ad3d 4b6b 0d3e 7076 80bd f768 05be
000003c0: b2dd f8bd abed 42be 71a6 6d3c b2ba 283c
000003d0: 9e3e e33c 95bc 7abc 98ff cabd 98ad 8f3b
000003e0: 0966 06bd 9501 903d aea3 24bc 5cfa 253d
000003f0: 0086 573c ca0c efbd 2771 3abe adfe c63d

stage2.0.branch_main.6.weight f4 [24]
0.1740246 0.28754747 0.18049571 0.33778697 0.20040643 0.1711759 0.17954162 0.2084642
0.19820958 0.1761432 0.20989363 0.19949196 0.1833925 0.2308386 0.17254312 0.24536733
0.15215354 0.3388625 0.20052779 0.16680788 0.17693941 0.18994306 0.29088166 0.20912449
00000000: 8133 323e 6c39 933e ded3 383e 6af2 ac3e
00000010: 5837 4d3e bc48 2f3e c2d9 373e a477 553e
00000020: 74f7 4a3e e25e 343e 5bee 563e 9f47 4c3e
00000030: 3ecb 3b3e f460 6c3e 25af 303e 9341 7b3e
00000040: 23ce 1b3e 637f ad3e 2857 4d3e afcf 2a3e
00000050: 9b2f 353e 6f80 423e 71ee 943e bb24 563e

stage2.0.branch_main.6.bias f4 [24]
0.49625492 0.118987575 0.18021919 -0.13913989 0.66296726 0.37125498 0.24107245 0.059083942
0.025648098 0.31995443 0.7439755 -0.026077596 0.6880702 0.06972267 0.47377533 0.21073428
0.2711676 -0.25883552 0.31652072 0.28585124 0.5783839 0.07524094 0.03251549 0.05592689
00000000: 2015 fe3e c2af f33d 618b 383e b07a 0ebe
00000010: 39b8 293f 2215 be3e b2db 763e 0102 723d
00000020: f61b d23c 11d1 a33e 2e75 3e3f afa0 d5bc
00000030: 5e25 303f c2ca 8e3d ae92 f23e baca 573e
00000040: 7bd6 8a3e 1786 84be 010f a23e 185b 923e
00000050: f810 143f ec17 9a3d f62e 053d 9813 653d

stage2.0.branch_main.6.running_mean f4 [24]
-9.0075936e-08 -9.9089526e-08 3.9154212e-08 1.3259515e-07 6.725999e-08 -1.0352534e-07 -3.275142e-08 1.4916026e-07
3.780519e-07 -1.557933e-07 3.2442338e-07 2.295455e-09 -8.5202197e-07 3.5136903e-08 2.2890659e-07 -4.9213938e-08
4.9953996e-07 -2.579866e-07 -7.271179e-08 3.4448104e-07 -2.5272834e-08 -2.5649354e-07 -1.8514115e-07 -6.5456526e-08
00000000: c56f c1b3 0bcb d4b3 832a 2833 7a5f 0e34
00000010: 9270 9033 a851 deb3 91aa 0cb3 dc28 2034
00000020: 0ff7 ca34 2348 27b4 692c ae34 12be 1d31
00000030: 81b6 64b5 6fe9 1633 5dc9 7534 4c5f 53b3
00000040: 2018 0635 6981 8ab4 bb25 9cb3 1df1 b834
00000050: 8d17 d9b2 34b4 89b4 36cb 46b4 1b91 8cb3

stage2.0.branch_main.6.running_var f4 [24]
0.16606969 0.117105216 0.04039969 0.051751096 0.096044786 0.050067928 0.036019716 0.040448025
0.051252246 0.050630953 0.15416674 0.024369331 0.092301264 0.032844014 0.054022674 0.0627042
0.086564824 0.033187352 0.05731168 0.03966052 0.09735495 0.025458097 0.05842147 0.029492956
00000000: 2c0e 2a3e dcd4 ef3d 257a 253d f5f8 533d
00000010: 21b3 c43d 0714 4d3d 6989 133d d4ac 253d
00000020: e0ed 513d 6762 4f3d e3dd 1d3e 31a2 c73c
00000030: 7208 bd3d 7287 063d e146 5d3d 0f6b 803d
00000040: e648 b13d 76ef 073d a7bf 6a3d 1273 223d
00000050: 0862 c73d 808d d03c 5a4b 6f3d 369b f13c

stage2.0.branch_proj.0.weight f4 [24, 1, 3, 3]
-0.013178443 0.022606162 -0.0105854375 -0.38217613 -0.13077724 0.4171475 -0.42213184 -0.16176724
0.42116112 0.05933037 -0.019323496 -0.0187172 0.08345269 0.046545498 -0.008771641 0.11705237
0.0810549 -0.0626167 0.019906104 0.018657027 -0.100858025 -0.012018585 -0.025804495 0.103764966
-0.17994036 0.03715122 0.62808526 -0.0020768 -0.0075288354 -0.022089684 0.20053111 0.051781245
-0.08638824 0.46529636 0.1616937 -0.15884338 0.0013941894 0.05321793 -0.006807633 0.06311414
0.045308225 -0.077091 0.024187865 -0.0939302 -0.35299876 0.027470915 0.0138865765 0.016515348
-0.5682351 0.060742248 0.47385368 -0.60800624 -0.059529014 0.580356 -0.019607166 0.064019546
-0.026013972 0.06636602 0.0064292597 -0.11587496 -0.016317483 -0.0880438 -0.32884657 -0.013741301
0.030407328 0.04981719 -0.02931336 0.05104562 0.114478305 -0.06418501 0.09415691 0.1974183
0.012873793 -0.06159584 0.024085704 -0.060327962 -0.049479652 0.09673497 -0.03661509 0.020268207
0.34353992 -0.03529221 -0.10326519 -0.030012174 -0.016750563 -0.08027765 -0.028590688 -0.013208397
-0.014446939 -0.093996696 -0.0027028664 0.002570168 0.0012762812 0.01822632 -0.055965148 -0.08698789
0.0974974 -0.20829335 -0.4543029 -1.3998419e-12 -1.855332e-12 -2.1272394e-12 -1.0126601e-12 -8.26526e-13
1.3819046e-12 -1.4277289e-12 1.7686262e-12 1.9774085e-12 0.040929686 -0.02329631 0.032120172 0.008353516
-0.11859217 -0.12434817 -0.013288524 -0.057289287 -0.1167269 -0.01288557 -0.021549838 -0.020295542
-0.027287986 -0.063045196 -0.14493924 -0.00608151 -0.056804914 -0.13064802 -0.028738413 0.0933761
0.006897881 0.04076746 0.05695707 -0.16031393 -0.011075712 -0.034217864 -0.3255007 1.7176566e-12
8.67703e-14 -1.0828965e-12 -6.925628e-13 -1.5501349e-12 5.785098e-14 -2.0223567e-12 1.2943983e-12 -3.1766834e-13
-0.01413239 -0.012131688 0.028046157 0.13924193 -0.027403448 -0.25783646 0.24175288 -0.0860365
-0.47876868 -0.050783575 0.026821703 0.037644498 -0.1509234 0.02176557 0.23282559 -0.077712
0.0071316487 0.19011608 -0.026434394 -0.035138186 -0.05610099 -0.025679922 -0.14634112 -0.1834241
-0.038335595 -0.102377474 -0.13646983 0.011115633 0.061069924 0.022794275 0.08113231 0.085268795
-0.07788166 0.084026076 -0.027232101 -0.29120559 0.038722448 -0.0022176413 0.007477954 0.14431648
0.03243799 -0.03125694 0.10200812 0.026020583 0.0059592086 0.021791903 -0.025340088 -0.0013713592
0.50298953 -0.061919525 -0.51861864 0.4418867 -0.020756492 -0.5212699 -0.027964601 0.04372491
0.06738224 0.0786646 0.015210427 -0.08424161 0.010840143 -0.051211454 -0.31020626 0.012881572
0.0479173 0.0359946 -0.005998138 0.11800184 0.1290788 0.0049327924 0.13846749 0.13600329
00000000: 65ea 57bc 8f30 b93c 8b6e 2dbc 97ac c3be
00000010: 78ea 05be 5b94 d53e aa21 d8be 50a6 25be
00000020: 6ea2 d73e 6704 733d 4f4c 9ebc d054 99bc
00000030: 3ee9 aa3d 7ea6 3e3d eeb6 0fbc 27b9 ef3d
00000040: 1d00 a63d 2f3d 80bd 2012 a33c 9fd6 983c
00000050: a78e cebd 99e9 44bc f363 d3bc ba82 d43d
00000060: 4942 38be e12b 183d 32ca 203f ec1a 08bb
00000070: 73b4 f6bb 6df5 b4bc 0758 4d3e 9218 543d
00000080: 51ec b0bd 533b ee3e 0993 253e d7a7 22be
00000090: 3cbd b63a 0bfb 593d 9112 dfbb fc41 813d
000000a0: 1e95 393d e3e1 9dbd a125 c63c 7a5e c0bd
000000b0: 41bc b4be af0a e13c 8684 633c 324b 873c
000000c0: db77 11bf ddcc 783d f39c f23e 4ca6 1bbf
000000d0: b2d4 73bd 3692 143f 359f a0bc ae1c 833d
000000e0: 411b d5bc e8ea 873d 8aac d23b da4f edbd
000000f0: 3eac 85bc 4f50 b4bd 945e a8be 3223 61bc
00000100: ca18 f93c 1c0d 4c3d 9222 f0bc 3615 513d
00000110: 9a73 ea3d 6e73 83bd 57d5 c03d 0628 4a3e
00000120: 9aec 523c eb4b 7cbd 624f c53c 741a 77bd
00000130: 2dab 4abd fc1c c63d b4f9 15bd 8309 a63c
00000140: 77e4 af3e 908e 10bd b37c d3bd 17dc f5bc
00000150: 7a38 89bc 9c68 a4bd 0537 eabc 0868 58bc
00000160: dbb2 6cbc 5781 c0bd 9322 31bb 4470 283b
00000170: e448 a73a 5d4f 953c b63b 65bd b526 b2bd
00000180: b8ac c73d da4a 55be 649a e8be 9f02 c5ab
00000190: b18e 02ac f0b0 15ac ed84 8eab 7aa5 68ab
000001a0: 5c7c c22b 5bef c8ab 79e9 f82b d325 0b2c
000001b0: e3a5 273d e7d7 bebc 7190 033d 30dd 083c
000001c0: 74e0 f2bd 41aa febd 1cb8 59bc 2ca8 6abd
000001d0: 830e efbd ff1d 53bc 4989 b0bc d642 a6bc
000001e0: 0e8b dfbc d71d 81bd f46a 14be 6747 c7bb
000001f0: 45ac 68bd 98c8 05be d26c ebbc f83b bf3d
00000200: 9f07 e23b c8fb 263d d14b 693d 5629 24be
00000210: e776 35bc 0828 0cbd 07a8 a6be 1abd f12b
00000220: ac63 c329 7567 98ab 69f0 42ab 7f29 daab
00000230: d244 8229 8a4f 0eac 9d2b b62b d5d4 b2aa
00000240: 8a8b 67bc fdc3 46bc 0ec1 e53c 7095 0e3e
00000250: 327d e0bc 2403 84be 118e 773e e833 b0bd
00000260: 2b21 f5be 7002 50bd 30b9 db3c 1e31 1a3d
00000270: aa8b 1abe b54d b23c d569 6e3e 7827 9fbd
00000280: 9bb0 e93b caad 423e f18c d8bc 0fed 0fbd
00000290: 27ca 65bd b35e d2bc 72da 15be 87d3 3bbe
000002a0: c905 1dbd 48ab d1bd bfbe 0bbe 581e 363c
000002b0: 7524 7a3d 0fbb ba3c b228 a63d 68a1 ae3d
000002c0: 6b80 9fbd dd15 ac3d db15 dfbc e618 95be
000002d0: 6e9b 1e3d d955 11bb a009 f53b b3c7 133e
000002e0: b3dd 043d 4707 00bd a2e9 d03d 1e29 d53c
000002f0: 7745 c33b ef84 b23c 0496 cfbc 2ebf b3ba
00000300: ecc3 003f 549f 7dbd 31c4 04bf f93e e23e
00000310: 8509 aabc f271 05bf 0516 e5bc e418 333d
00000320: b3ff 893d e81a a13d 2835 793c dd86 acbd
00000330: db9a 313c 1ac3 51bd 5bd3 9ebe 3b0d 533c
00000340: ee44 443d 136f 133d 078c c4bb f3aa f13d
00000350: 3c2d 043e 43a3 a13b 6cca 0d3e 7244 0b3e

stage2.0.branch_proj.1.weight f4 [24]
0.37623748 0.16019347 0.3084482 0.35161725 0.17958428 0.3739297 0.18417951 0.16993384
0.16243386 0.16121382 0.3953472 0.0006782105 0.16610163 0.19578137 0.17068316 0.00093682675
0.3335711 0.12786247 0.27934334 0.12201355 0.14187507 0.37498227 0.13483466 0.24436456
00000000: 33a2 c03e c209 243e ecec 9d3e 2d07 b43e
00000010: f1e4 373e b773 bf3e 8e99 3c3e 2303 2e3e
00000020: 1055 263e 3c15 253e f36a ca3e f0c9 313a
00000030: 8c16 2a3e e97a 483e 91c7 2e3e 6195 753a
00000040: d5c9 aa3e 61ee 023e 1706 8f3e 3de2 f93d
00000050: b347 113e adfd bf3e 1912 0a3e b43a 7a3e

stage2.0.branch_proj.1.bias f4 [24]
4.773714e-07 3.721774e-07 -6.310013e-07 -9.779721e-08 2.0199599e-07 -1.7934667e-07 -6.5599544e-08 -3.7126696e-08
-6.569439e-08 2.9149678e-07 1.109746e-06 1.0345684e-07 5.3195703e-10 1.0340611e-07 3.7788283e-07 1.0180396e-07
3.4293694e-07 4.867263e-07 1.293267e-07 3.1375944e-07 -3.900477e-08 -6.166402e-07 1.0019229e-07 2.5163556e-07
00000000: b624 0035 accf c734 1462 29b5 9604 d2b3
00000010: 3ce4 5834 7092 40b4 bbdf 8cb3 3c75 1fb3
00000020: df13 8db3 037f 9c34 95f2 9435 002c de33
00000030: 2639 1230 1c10 de33 d2df ca34 529f da33
00000040: e51c b834 94a7 0235 0ddd 0a34 c572 a834
00000050: 3386 27b3 3187 25b5 4b29 d733 8718 8734

stage2.0.branch_proj.1.running_mean f4 [24]
-0.15028314 0.18117537 0.31919852 0.31620285 -0.12209236 -0.03597555 -0.15028691 0.010020896
0.12524384 -0.22312821 -0.11302535 0.0 -0.037567157 -0.32693997 -0.13879992 0.0
-0.44792944 0.004155769 -0.18610781 -0.02485118 0.12031381 -0.22330102 -0.11260721 0.2641939
00000000: d3e3 19be 0986 393e fd6d a33e 57e5 a13e
00000010: 8f0b fabd 195b 13bd d0e4 19be af2e 243c
00000020: ec3f 003e b97b 64be d679 e7bd 0000 0000
00000030: 05e0 19bd ad64 a7be 9121 0ebe 0000 0000
00000040: 0257 e5be 1e2d 883b 0c93 3ebe b494 cbbc
00000050: 1667 f63d 06a9 64be 9c9e e6bd 6c44 873e

stage2.0.branch_proj.1.running_var f4 [24]
0.01230526 0.008127401 0.0078182025 0.017630009 0.035837837 0.0726266 0.042263884 0.00082250865
0.021641957 0.014346789 0.008936163 0.0 0.0021994996 0.020142298 0.03360831 0.0
0.014784755 0.00021958328 0.024784023 0.004762208 0.013946988 0.07326789 0.008964253 0.047250208
00000000: 009c 493c ca28 053c eb17 003c cf6c 903c
00000010: b2ca 123d 41bd 943d e51c 2d3d 9f9d 573a
00000020: 794a b13c cb0e 6b3c fc68 123c 0000 0000
00000030: 7b25 103b 7601 a53c dea8 093d 0000 0000
00000040: c23b 723c f03f 6639 dd07 cb3c 4c0c 9c3b
00000050: e881 643c 7a0d 963d cdde 123c 6f89 413d

stage2.0.branch_proj.2.weight f4 [24, 24, 1, 1]
-0.02220682 0.14172702 0.037674088 0.020988284 -0.02377191 -0.0009770058 0.028926777 -0.044013634
-0.024758752 0.1463721 0.065357275 -1.4740361e-12 -0.52382433 -0.2161955 0.016823716 -1.3134756e-12
-0.021946104 0.3755921 -0.07058988 0.010347846 0.07971911 -0.16901398 -0.04635688 -0.024094475
0.030480523 0.07698413 -0.018028827 0.004118449 -0.009414852 -0.004022009 -0.0120076025 0.050770454
-0.028377034 -0.016020555 0.6912875 1.9530278e-12 -0.06995322 -0.08176503 0.006732759 6.990268e-13
-0.09145223 0.03491304 0.015157451 0.009179267 0.012545045 -0.031519916 0.0043556346 -0.0100918785
0.10730311 0.028307192 0.40600935 0.063524395 0.028037427 -0.04116643 0.00526899 -0.008061287
-0.014194831 0.06885583 -0.3209502 -1.0213611e-12 0.03369876 -0.018044868 0.05538788 -4.420518e-13
-0.4662255 -0.028389717 -0.0035816876 0.0031696819 -0.00735518 0.0142203 0.015744856 -0.033577837
-0.056043293 -0.17500755 0.0010931443 0.039683647 0.031925876 0.0260938 0.14316693 0.057920184
0.032366257 0.04280697 0.012485472 -7.4418027e-13 0.11081527 0.28202972 -0.09940825 1.0373754e-12
-0.03432141 0.05050102 -0.45462963 -0.011332155 0.017631182 -0.03512033 0.022255572 -0.37339646
0.08192516 -0.043615554 0.08354334 0.91485494 -0.029591106 0.000675966 -0.018437311 -0.0074218665
-0.01831835 -0.040144276 0.121246 4.0011356e-13 0.047251705 0.040753905 0.025392687 -5.0119127e-13
0.0050432542 0.010355219 -0.04296182 -2.468593e-05 0.021692457 -0.02680892 -0.013290154 -0.05750249
0.10972582 0.08460274 -0.0013031095 -0.005346822 0.0071093845 0.15044574 -0.059687696 0.035577297
-0.028455708 -0.043124594 -7.189314e-05 -1.2903194e-12 -0.051432665 -0.108440496 0.058454044 -6.1176514e-13
0.050769635 -0.025810152 0.24039778 0.008680141 -0.026091935 0.3330013 -0.004861328 0.17189685
-0.013235312 0.059843067 0.019293157 0.022654448 0.0135359485 0.5445862 -0.027252002 0.16371022
0.010259024 -0.08554196 -0.02798719 -6.711141e-13 0.051913008 -5.750204e-06 -0.01059202 6.817014e-13
-0.05333497 0.01410301 -0.0023328455 -0.05617227 -0.3264274 0.012669506 -0.03320288 -0.026649822
-0.06597666 0.13031022 -0.013613859 0.0021177838 -0.10657909 0.03135214 0.050633255 -0.07134705
0.14636981 0.1753677 -0.032956246 6.4514886e-13 -0.096891806 -0.0683139 0.0952206 1.3193269e-12
-0.010004644 -0.023911102 -0.38047528 0.0019164179 0.04303243 -0.084105335 -0.032151647 0.00534312
-0.047682974 -0.0430813 0.7107492 -0.04060419 6.726627e-05 0.010847903 0.005788972 -0.01395844
0.0004476021 -0.042380124 0.03140809 -4.417732e-13 -0.05531996 0.024177328 -0.024458196 -1.0641526e-12
0.14763957 0.042912632 -0.0022572696 -0.013508467 0.0008300892 0.005896604 0.0036019434 -0.0036638312
0.30532017 0.014708562 -0.09916311 -0.104072966 0.028099533 0.040720023 -0.035223264 -0.0010265239
0.015304443 0.02396709 0.23156393 1.1222266e-12 -0.0020040816 -0.024128884 -0.036325257 -2.6493838e-13
0.4499193 -0.014738224 0.052367903 0.00023652305 0.033499833 -0.019299688 0.01217469 0.06595548
0.0083974805 0.13426156 0.010872692 0.017799633 0.10005291 -0.0363314 0.1100964 -0.09784861
-0.054211047 0.037950307 0.003503073 -6.2752754e-13 -0.030020278 -0.10056051 -0.03526832 -3.0811839e-13
00000000: 14eb b5bc e320 113e 2550 1a3d 9fef ab3c
00000010: 4fbd c2bc e00e 80ba d9f7 ec3c a447 34bd
00000020: ded2 cabc 91e2 153e 09da 853d bf73 cfab
00000030: 5a19 06bf 5a62 5dbe e4d1 893c f2da b8ab
00000040: 51c8 b3bc 9c4d c03e 6d91 90bd 038a 293c
00000050: c643 a33d 0012 2dbe b6e0 3dbd c761 c5bc
00000060: 4ab2 f93c dba9 9d3d 31b1 93bc 0ef4 863b
00000070: c040 1abc 0fcb 83bb 89bb 44bc aef4 4f3d
00000080: f476 e8bc 8a3d 83bc 38f8 303f 9f6e 092c
00000090: a243 8fbd 6d74 a7bd 7a9e dc3b 30c2 442b
000000a0: 4f4b bbbd fa00 0f3d f556 783c a364 163c
000000b0: bc89 4d3c 071b 01bd b6b9 8e3b 6858 25bc
000000c0: bcc1 db3d 7ce4 e73c 75e0 cf3e 1419 823d
000000d0: bfae e53c 219e 28bd 7ea7 ac3b 7d13 04bc
000000e0: 7091 68bc 4904 8d3d 9653 a4be 69be 8fab
000000f0: b607 0a3d d5d2 93bc 67de 623d 61da f8aa
00000100: 1cb5 eebe 8d91 e8bc bfba 6abb 70ba 4f3b
00000110: b903 f1bb 43fc 683c 5bfb 803c ea88 09bd
00000120: a78d 65bd 2e35 33be d647 8f3a 528b 223d
00000130: b5c4 023d aac2 d53c 5a9a 123e b73d 6d3d
00000140: 7b92 043d 5d56 2f3d dd8f 4c3c d777 51ab
00000150: 1ef3 e23d 3366 903e 8d96 cbbd 63ff 912b
00000160: 9b94 0cbd 28da 4e3d 37c5 e8be 81aa 39bc
00000170: 456f 903c 56da 0fbd 5151 b63c d22d bfbe
00000180: 61c8 a73d 39a6 32bd c518 ab3d ef33 6a3f
00000190: 0c69 f2bc 4f33 313a d809 97bc 2133 f3bb
000001a0: 5d10 96bc 536e 24bd d34f f83d 713e e12a
000001b0: 018b 413d 91ed 263d 5304 d03c a312 0dab
000001c0: e241 a53b f0a8 293c bcf8 2fbd a214 cfb7
000001d0: 61b4 b13c 619e dbbc f2be 59bc bb87 6bbd
000001e0: eeb7 e03d 3444 ad3d 19cd aaba 6534 afbb
000001f0: d7f5 e83b 730e 1a3e 167b 74bd 80b9 113d
00000200: f21b e9bc 6aa3 30bd 56c5 96b8 a898 b5ab
00000210: 0fab 52bd 0d16 debd 826d 6f3d 5332 2cab
00000220: d2f3 4f3d d06f d3bc d62a 763e 2637 0e3c
00000230: c1be d5bc 257f aa3e c64b 9fbb ba05 303e
00000240: ecd8 58bc 011e 753d af0c 9e3c d295 b93c
00000250: e2c5 5d3c 006a 0b3f 973f dfbc a7a3 273e
00000260: 7715 283c a030 afbd 6445 e5bc dee6 3cab
00000270: bca2 543d e0f1 c0b6 278a 2dbc c3e1 3f2b
00000280: c575 5abd 5010 673c a7e2 18bb e514 66bd
00000290: 7e21 a7be c293 4f3c beff 07bd ba50 dabc
000002a0: c51e 87bd 0b70 053e aa0c 5fbc 84ca 0a3b
000002b0: 2346 dabd 1a6b 003d d164 4f3d 671e 92bd
000002c0: f8e1 153e 9793 333e 21fd 06bd e097 352b
000002d0: 366f c6bd 28e8 8bbd 0503 c33d c3ad b92b
000002e0: 85ea 23bc 37e1 c3bc a8cd c2be 5030 fb3a
000002f0: c642 303d 6b3f acbd 72b1 03bd 5715 af3b
00000300: 394f 43bd 0476 30bd a9f3 353f 9450 26bd
00000310: 4e11 8d38 67bb 313c 6bb1 bd3b f1b1 64bc
00000320: 23ac ea39 c896 2dbd c5a5 003d 3ab2 f8aa
00000330: 2f97 62bd 880f c63c 8e5c c8bc 23c4 95ab
00000340: d42e 173e 28c5 2f3d b3ee 13bb 9e52 5dbc
00000350: 589a 593a 4d38 c13b 950e 6c3b e31c 70bb
00000360: ed52 9c3e 2efc 703c 0716 cbbd 3524 d5bd
00000370: fe30 e63c 0aca 263d 4546 10bd 6d8c 86ba
00000380: 7dbf 7a3c a156 c43c 181f 6d3e 79f0 9d2b
00000390: e956 03bb f0a9 c5bc cbc9 14bd a525 95aa
000003a0: d35b e63e 9878 71bc ba7f 563d 2c03 7839
000003b0: 1f37 093d 611a 9ebc 5a78 473c ab13 873d
000003c0: 9695 093c dd7b 093e 6023 323c 89d0 913c
000003d0: 8ae8 cc3d 3cd0 14bd 397a e13d da64 c8bd
000003e0: 670c 5ebd c871 1b3d d093 653b 20a2 30ab
000003f0: 16ed f5bc abf2 cdbd 8475 10bd 8a74 adaa

stage2.0.branch_proj.3.weight f4 [24]
0.10827149 0.51708394 0.2164695 0.14476883 0.28760007 0.24615249 0.29208216 0.16700464
0.19176103 0.38941798 0.30020228 0.2956583 0.13284533 0.24537127 0.34352085 0.25052404
0.09645206 0.25875995 0.24051952 0.27164754 0.16079213 0.30309528 0.16932206 0.33318257
00000000: 71bd dd3d 9d5f 043f 2eaa 5d3e 483e 143e
00000010: 5140 933e 660f 7c3e cb8b 953e 4403 2b3e
00000020: 015d 443e cb61 c73e 1db4 993e 8660 973e
00000030: 9b08 083e 9b42 7b3e f7e1 af3e b044 803e
00000040: a888 c53d 2f7c 843e c04a 763e 6315 8b3e
00000050: b1a6 243e 4e2f 9b3e c362 2d3e e896 aa3e

stage2.0.branch_proj.3.bias f4 [24]
0.19926764 -0.12448871 0.16297708 0.42102012 0.14870037 0.057709277 0.008896533 0.21601251
0.044858437 -0.071968414 0.043792687 0.036785908 0.27854392 0.16079798 -0.046691813 0.096329615
0.47342634 0.07639116 0.11082535 0.07187339 0.41105103 -0.071215846 0.021002209 0.087786674
00000000: d10c 4c3e f0f3 febd 77e3 263e f38f d73e
00000010: e944 183e 9060 6c3d c4c2 113c 6232 5d3e
00000020: 7bbd 373d 2d64 93bd f65f 333d d2ac 163d
00000030: 4f9d 8e3e 3aa8 243e ea3f 3fbd 7648 c53d
00000040: f064 f23e f872 9c3d 67f8 e23d 5b32 933d
00000050: 4875 d23e 9dd9 91bd d30c ac3c 80c9 b33d

stage2.0.branch_proj.3.running_mean f4 [24]
3.8684527e-07 8.144755e-07 -6.3877064e-07 -2.0879074e-07 5.3326414e-08 -6.966994e-08 -1.8789243e-07 2.917733e-08
-3.7214903e-07 6.0803046e-07 -2.4482767e-07 -3.3585303e-07 -6.107078e-08 1.5617972e-07 1.4933882e-07 -3.979451e-07
4.5990174e-07 2.9475865e-07 3.042722e-07 2.9081994e-07 4.0270567e-08 -1.6880904e-07 1.906518e-07 -1.2018367e-07
00000000: 9caf cf34 55a2 5a35 fc77 2bb5 f62f 60b4
00000010: 0309 6533 749d 95b3 7abf 49b4 a1a1 fa32
00000020: c6cb c7b4 8937 2335 dc70 83b4 4a4f b4b4
00000030: 0426 83b3 5bb2 2734 f159 2034 28a5 d5b4
00000040: 6ae8 f634 523f 9e34 da5a a334 fd21 9c34
00000050: f5f5 2c33 e041 35b4 f8b5 4c34 d60b 01b4

stage2.0.branch_proj.3.running_var f4 [24]
0.04609095 0.08974918 0.033747755 0.008386002 0.081285045 0.01654686 0.05345512 0.02379708
0.05119894 0.016683444 0.030375222 0.028759325 0.008791382 0.034529954 0.068065695 0.059896555
0.09926313 0.027033417 0.01109022 0.02083883 0.020092342 0.013194452 0.011554723 0.057733316
00000000: ddc9 3c3d 6bce b73d 163b 0a3d 7165 093c
00000010: c678 a63d 488d 873c c2f3 5a3d 18f2 c23c
00000020: fbb5 513d b8ab 883c 75d5 f83c ad98 eb3c
00000030: bb09 103c 486f 0d3d 0766 8b3d 1756 753d
00000040: 784a cb3d 2f75 dd3c c1b3 353c 32b6 aa3c
00000050: b298 a43c 8b2d 583c 0550 3d3c c579 6c3d
